…
Namespace(attn='simam', batch_size=4, cut_len=32000, data_dir='/mnt/iusers01/msc-stu/hum-msc-data-sci-2024-2025/t74061zq/erp/DEMAND_16KHz', decay_epoch=12, epochs=60, init_lr=0.0005, log_interval=500, loss_weights=[0.1, 0.9, 0.2, 0.05], save_model_dir='./saved_models_log/saved_models_20250820_simam')
['NVIDIA A100-SXM4-80GB']
====================================================================================================
Layer (type:depth-idx)                             Output Shape              Param #
====================================================================================================
TSCNet                                             [1, 1, 321, 201]          --
├─DenseEncoder: 1-1                                [1, 64, 321, 101]         --
│    └─Sequential: 2-1                             [1, 64, 321, 201]         --
│    │    └─Conv2d: 3-1                            [1, 64, 321, 201]         256
│    │    └─InstanceNorm2d: 3-2                    [1, 64, 321, 201]         128
│    │    └─PReLU: 3-3                             [1, 64, 321, 201]         64
│    └─Simam_module: 2-2                           [1, 64, 321, 201]         --
│    │    └─Sigmoid: 3-4                           [1, 64, 321, 201]         --
│    └─DilatedDenseNet: 2-3                        [1, 64, 321, 201]         --
│    │    └─ConstantPad2d: 3-5                     [1, 64, 322, 203]         --
│    │    └─Conv2d: 3-6                            [1, 64, 321, 201]         24,640
│    │    └─InstanceNorm2d: 3-7                    [1, 64, 321, 201]         128
│    │    └─PReLU: 3-8                             [1, 64, 321, 201]         64
│    │    └─ConstantPad2d: 3-9                     [1, 128, 323, 203]        --
│    │    └─Conv2d: 3-10                           [1, 64, 321, 201]         49,216
│    │    └─InstanceNorm2d: 3-11                   [1, 64, 321, 201]         128
│    │    └─PReLU: 3-12                            [1, 64, 321, 201]         64
│    │    └─ConstantPad2d: 3-13                    [1, 192, 325, 203]        --
│    │    └─Conv2d: 3-14                           [1, 64, 321, 201]         73,792
│    │    └─InstanceNorm2d: 3-15                   [1, 64, 321, 201]         128
│    │    └─PReLU: 3-16                            [1, 64, 321, 201]         64
│    │    └─ConstantPad2d: 3-17                    [1, 256, 329, 203]        --
│    │    └─Conv2d: 3-18                           [1, 64, 321, 201]         98,368
│    │    └─InstanceNorm2d: 3-19                   [1, 64, 321, 201]         128
│    │    └─PReLU: 3-20                            [1, 64, 321, 201]         64
│    └─Sequential: 2-4                             [1, 64, 321, 101]         --
│    │    └─Conv2d: 3-21                           [1, 64, 321, 101]         12,352
│    │    └─InstanceNorm2d: 3-22                   [1, 64, 321, 101]         128
│    │    └─PReLU: 3-23                            [1, 64, 321, 101]         64
├─TSCB: 1-2                                        [1, 64, 321, 101]         --
│    └─ConformerBlock: 2-5                         [101, 321, 64]            --
│    │    └─Scale: 3-24                            [101, 321, 64]            33,216
│    │    └─PreNorm: 3-25                          [101, 321, 64]            32,976
│    │    └─ConformerConvModule: 3-26              [101, 321, 64]            29,376
│    │    └─Scale: 3-27                            [101, 321, 64]            33,216
│    │    └─LayerNorm: 3-28                        [101, 321, 64]            128
│    └─ConformerBlock: 2-6                         [321, 101, 64]            --
│    │    └─Scale: 3-29                            [321, 101, 64]            33,216
│    │    └─PreNorm: 3-30                          [321, 101, 64]            32,976
│    │    └─ConformerConvModule: 3-31              [321, 101, 64]            29,376
│    │    └─Scale: 3-32                            [321, 101, 64]            33,216
│    │    └─LayerNorm: 3-33                        [321, 101, 64]            128
├─TSCB: 1-3                                        [1, 64, 321, 101]         --
│    └─ConformerBlock: 2-7                         [101, 321, 64]            --
│    │    └─Scale: 3-34                            [101, 321, 64]            33,216
│    │    └─PreNorm: 3-35                          [101, 321, 64]            32,976
│    │    └─ConformerConvModule: 3-36              [101, 321, 64]            29,376
│    │    └─Scale: 3-37                            [101, 321, 64]            33,216
│    │    └─LayerNorm: 3-38                        [101, 321, 64]            128
│    └─ConformerBlock: 2-8                         [321, 101, 64]            --
│    │    └─Scale: 3-39                            [321, 101, 64]            33,216
│    │    └─PreNorm: 3-40                          [321, 101, 64]            32,976
│    │    └─ConformerConvModule: 3-41              [321, 101, 64]            29,376
│    │    └─Scale: 3-42                            [321, 101, 64]            33,216
│    │    └─LayerNorm: 3-43                        [321, 101, 64]            128
├─TSCB: 1-4                                        [1, 64, 321, 101]         --
│    └─ConformerBlock: 2-9                         [101, 321, 64]            --
│    │    └─Scale: 3-44                            [101, 321, 64]            33,216
│    │    └─PreNorm: 3-45                          [101, 321, 64]            32,976
│    │    └─ConformerConvModule: 3-46              [101, 321, 64]            29,376
│    │    └─Scale: 3-47                            [101, 321, 64]            33,216
│    │    └─LayerNorm: 3-48                        [101, 321, 64]            128
│    └─ConformerBlock: 2-10                        [321, 101, 64]            --
│    │    └─Scale: 3-49                            [321, 101, 64]            33,216
│    │    └─PreNorm: 3-50                          [321, 101, 64]            32,976
│    │    └─ConformerConvModule: 3-51              [321, 101, 64]            29,376
│    │    └─Scale: 3-52                            [321, 101, 64]            33,216
│    │    └─LayerNorm: 3-53                        [321, 101, 64]            128
├─TSCB: 1-5                                        [1, 64, 321, 101]         --
│    └─ConformerBlock: 2-11                        [101, 321, 64]            --
│    │    └─Scale: 3-54                            [101, 321, 64]            33,216
│    │    └─PreNorm: 3-55                          [101, 321, 64]            32,976
│    │    └─ConformerConvModule: 3-56              [101, 321, 64]            29,376
│    │    └─Scale: 3-57                            [101, 321, 64]            33,216
│    │    └─LayerNorm: 3-58                        [101, 321, 64]            128
│    └─ConformerBlock: 2-12                        [321, 101, 64]            --
│    │    └─Scale: 3-59                            [321, 101, 64]            33,216
│    │    └─PreNorm: 3-60                          [321, 101, 64]            32,976
│    │    └─ConformerConvModule: 3-61              [321, 101, 64]            29,376
│    │    └─Scale: 3-62                            [321, 101, 64]            33,216
│    │    └─LayerNorm: 3-63                        [321, 101, 64]            128
├─MaskDecoder: 1-6                                 [1, 1, 321, 201]          --
│    └─DilatedDenseNet: 2-13                       [1, 64, 321, 101]         --
│    │    └─ConstantPad2d: 3-64                    [1, 64, 322, 103]         --
│    │    └─Conv2d: 3-65                           [1, 64, 321, 101]         24,640
│    │    └─InstanceNorm2d: 3-66                   [1, 64, 321, 101]         128
│    │    └─PReLU: 3-67                            [1, 64, 321, 101]         64
│    │    └─ConstantPad2d: 3-68                    [1, 128, 323, 103]        --
│    │    └─Conv2d: 3-69                           [1, 64, 321, 101]         49,216
│    │    └─InstanceNorm2d: 3-70                   [1, 64, 321, 101]         128
│    │    └─PReLU: 3-71                            [1, 64, 321, 101]         64
│    │    └─ConstantPad2d: 3-72                    [1, 192, 325, 103]        --
│    │    └─Conv2d: 3-73                           [1, 64, 321, 101]         73,792
│    │    └─InstanceNorm2d: 3-74                   [1, 64, 321, 101]         128
│    │    └─PReLU: 3-75                            [1, 64, 321, 101]         64
│    │    └─ConstantPad2d: 3-76                    [1, 256, 329, 103]        --
│    │    └─Conv2d: 3-77                           [1, 64, 321, 101]         98,368
│    │    └─InstanceNorm2d: 3-78                   [1, 64, 321, 101]         128
│    │    └─PReLU: 3-79                            [1, 64, 321, 101]         64
│    └─Simam_module: 2-14                          [1, 64, 321, 101]         --
│    │    └─Sigmoid: 3-80                          [1, 64, 321, 101]         --
│    └─SPConvTranspose2d: 2-15                     [1, 64, 321, 202]         --
│    │    └─ConstantPad2d: 3-81                    [1, 64, 321, 103]         --
│    │    └─Conv2d: 3-82                           [1, 128, 321, 101]        24,704
│    └─Conv2d: 2-16                                [1, 1, 321, 201]          129
│    └─InstanceNorm2d: 2-17                        [1, 1, 321, 201]          2
│    └─PReLU: 2-18                                 [1, 1, 321, 201]          1
│    └─Conv2d: 2-19                                [1, 1, 321, 201]          2
│    └─PReLU: 2-20                                 [1, 201, 321]             201
├─ComplexDecoder: 1-7                              [1, 2, 321, 201]          --
│    └─DilatedDenseNet: 2-21                       [1, 64, 321, 101]         --
│    │    └─ConstantPad2d: 3-83                    [1, 64, 322, 103]         --
│    │    └─Conv2d: 3-84                           [1, 64, 321, 101]         24,640
│    │    └─InstanceNorm2d: 3-85                   [1, 64, 321, 101]         128
│    │    └─PReLU: 3-86                            [1, 64, 321, 101]         64
│    │    └─ConstantPad2d: 3-87                    [1, 128, 323, 103]        --
│    │    └─Conv2d: 3-88                           [1, 64, 321, 101]         49,216
│    │    └─InstanceNorm2d: 3-89                   [1, 64, 321, 101]         128
│    │    └─PReLU: 3-90                            [1, 64, 321, 101]         64
│    │    └─ConstantPad2d: 3-91                    [1, 192, 325, 103]        --
│    │    └─Conv2d: 3-92                           [1, 64, 321, 101]         73,792
│    │    └─InstanceNorm2d: 3-93                   [1, 64, 321, 101]         128
│    │    └─PReLU: 3-94                            [1, 64, 321, 101]         64
│    │    └─ConstantPad2d: 3-95                    [1, 256, 329, 103]        --
│    │    └─Conv2d: 3-96                           [1, 64, 321, 101]         98,368
│    │    └─InstanceNorm2d: 3-97                   [1, 64, 321, 101]         128
│    │    └─PReLU: 3-98                            [1, 64, 321, 101]         64
│    └─Simam_module: 2-22                          [1, 64, 321, 101]         --
│    │    └─Sigmoid: 3-99                          [1, 64, 321, 101]         --
│    └─SPConvTranspose2d: 2-23                     [1, 64, 321, 202]         --
│    │    └─ConstantPad2d: 3-100                   [1, 64, 321, 103]         --
│    │    └─Conv2d: 3-101                          [1, 128, 321, 101]        24,704
│    └─InstanceNorm2d: 2-24                        [1, 64, 321, 202]         128
│    └─PReLU: 2-25                                 [1, 64, 321, 202]         64
│    └─Conv2d: 2-26                                [1, 2, 321, 201]          258
====================================================================================================
Total params: 1,834,833
Trainable params: 1,834,833
Non-trainable params: 0
Total mult-adds (G): 41.56
====================================================================================================
Input size (MB): 0.52
Forward/backward pass size (MB): 4856.40
Params size (MB): 7.34
Estimated Total Size (MB): 4864.25
====================================================================================================
==========================================================================================
Layer (type:depth-idx)                   Output Shape              Param #
==========================================================================================
Discriminator                            [1, 1]                    --
├─Sequential: 1-1                        [1, 1]                    --
│    └─Conv2d: 2-1                       [1, 16, 100, 160]         512
│    └─InstanceNorm2d: 2-2               [1, 16, 100, 160]         32
│    └─PReLU: 2-3                        [1, 16, 100, 160]         16
│    └─Conv2d: 2-4                       [1, 32, 50, 80]           8,192
│    └─InstanceNorm2d: 2-5               [1, 32, 50, 80]           64
│    └─PReLU: 2-6                        [1, 32, 50, 80]           32
│    └─Conv2d: 2-7                       [1, 64, 25, 40]           32,768
│    └─InstanceNorm2d: 2-8               [1, 64, 25, 40]           128
│    └─PReLU: 2-9                        [1, 64, 25, 40]           64
│    └─Conv2d: 2-10                      [1, 128, 12, 20]          131,072
│    └─InstanceNorm2d: 2-11              [1, 128, 12, 20]          256
│    └─PReLU: 2-12                       [1, 128, 12, 20]          128
│    └─AdaptiveMaxPool2d: 2-13           [1, 128, 1, 1]            --
│    └─Flatten: 2-14                     [1, 128]                  --
│    └─Linear: 2-15                      [1, 64]                   8,256
│    └─Dropout: 2-16                     [1, 64]                   --
│    └─PReLU: 2-17                       [1, 64]                   64
│    └─Linear: 2-18                      [1, 1]                    65
│    └─LearnableSigmoid: 2-19            [1, 1]                    1
==========================================================================================
Total params: 181,650
Trainable params: 181,650
Non-trainable params: 0
Total mult-adds (M): 19.67
==========================================================================================
Input size (MB): 0.52
Forward/backward pass size (MB): 11.49
Params size (MB): 0.73
Estimated Total Size (MB): 12.73
==========================================================================================
…
Namespace(batch_size=4, cut_len=32000, data_dir='/mnt/iusers01/msc-stu/hum-msc-data-sci-2024-2025/t74061zq/erp/DEMAND_16KHz', decay_epoch=12, epochs=60, init_lr=0.0005, log_interval=500, loss_weights=[0.1, 0.9, 0.2, 0.05], save_model_dir='./saved_models_log/saved_models_20250720_VoiceDEMAND_16khz')
['NVIDIA A100-SXM4-80GB']
====================================================================================================
Layer (type:depth-idx)                             Output Shape              Param #
====================================================================================================
TSCNet                                             [1, 1, 321, 201]          --
├─DenseEncoder: 1-1                                [1, 64, 321, 101]         --
│    └─Sequential: 2-1                             [1, 64, 321, 201]         --
│    │    └─Conv2d: 3-1                            [1, 64, 321, 201]         256
│    │    └─InstanceNorm2d: 3-2                    [1, 64, 321, 201]         128
│    │    └─PReLU: 3-3                             [1, 64, 321, 201]         64
│    └─SEBlock: 2-2                                [1, 64, 321, 201]         --
│    │    └─Sequential: 3-4                        [1, 64]                   580
│    └─DilatedDenseNet: 2-3                        [1, 64, 321, 201]         --
│    │    └─ConstantPad2d: 3-5                     [1, 64, 322, 203]         --
│    │    └─Conv2d: 3-6                            [1, 64, 321, 201]         24,640
│    │    └─InstanceNorm2d: 3-7                    [1, 64, 321, 201]         128
│    │    └─PReLU: 3-8                             [1, 64, 321, 201]         64
│    │    └─ConstantPad2d: 3-9                     [1, 128, 323, 203]        --
│    │    └─Conv2d: 3-10                           [1, 64, 321, 201]         49,216
│    │    └─InstanceNorm2d: 3-11                   [1, 64, 321, 201]         128
│    │    └─PReLU: 3-12                            [1, 64, 321, 201]         64
│    │    └─ConstantPad2d: 3-13                    [1, 192, 325, 203]        --
│    │    └─Conv2d: 3-14                           [1, 64, 321, 201]         73,792
│    │    └─InstanceNorm2d: 3-15                   [1, 64, 321, 201]         128
│    │    └─PReLU: 3-16                            [1, 64, 321, 201]         64
│    │    └─ConstantPad2d: 3-17                    [1, 256, 329, 203]        --
│    │    └─Conv2d: 3-18                           [1, 64, 321, 201]         98,368
│    │    └─InstanceNorm2d: 3-19                   [1, 64, 321, 201]         128
│    │    └─PReLU: 3-20                            [1, 64, 321, 201]         64
│    └─Sequential: 2-4                             [1, 64, 321, 101]         --
│    │    └─Conv2d: 3-21                           [1, 64, 321, 101]         12,352
│    │    └─InstanceNorm2d: 3-22                   [1, 64, 321, 101]         128
│    │    └─PReLU: 3-23                            [1, 64, 321, 101]         64
├─TSCB: 1-2                                        [1, 64, 321, 101]         --
│    └─ConformerBlock: 2-5                         [101, 321, 64]            --
│    │    └─Scale: 3-24                            [101, 321, 64]            33,216
│    │    └─PreNorm: 3-25                          [101, 321, 64]            32,976
│    │    └─ConformerConvModule: 3-26              [101, 321, 64]            29,376
│    │    └─Scale: 3-27                            [101, 321, 64]            33,216
│    │    └─LayerNorm: 3-28                        [101, 321, 64]            128
│    └─ConformerBlock: 2-6                         [321, 101, 64]            --
│    │    └─Scale: 3-29                            [321, 101, 64]            33,216
│    │    └─PreNorm: 3-30                          [321, 101, 64]            32,976
│    │    └─ConformerConvModule: 3-31              [321, 101, 64]            29,376
│    │    └─Scale: 3-32                            [321, 101, 64]            33,216
│    │    └─LayerNorm: 3-33                        [321, 101, 64]            128
├─TSCB: 1-3                                        [1, 64, 321, 101]         --
│    └─ConformerBlock: 2-7                         [101, 321, 64]            --
│    │    └─Scale: 3-34                            [101, 321, 64]            33,216
│    │    └─PreNorm: 3-35                          [101, 321, 64]            32,976
│    │    └─ConformerConvModule: 3-36              [101, 321, 64]            29,376
│    │    └─Scale: 3-37                            [101, 321, 64]            33,216
│    │    └─LayerNorm: 3-38                        [101, 321, 64]            128
│    └─ConformerBlock: 2-8                         [321, 101, 64]            --
│    │    └─Scale: 3-39                            [321, 101, 64]            33,216
│    │    └─PreNorm: 3-40                          [321, 101, 64]            32,976
│    │    └─ConformerConvModule: 3-41              [321, 101, 64]            29,376
│    │    └─Scale: 3-42                            [321, 101, 64]            33,216
│    │    └─LayerNorm: 3-43                        [321, 101, 64]            128
├─TSCB: 1-4                                        [1, 64, 321, 101]         --
│    └─ConformerBlock: 2-9                         [101, 321, 64]            --
│    │    └─Scale: 3-44                            [101, 321, 64]            33,216
│    │    └─PreNorm: 3-45                          [101, 321, 64]            32,976
│    │    └─ConformerConvModule: 3-46              [101, 321, 64]            29,376
│    │    └─Scale: 3-47                            [101, 321, 64]            33,216
│    │    └─LayerNorm: 3-48                        [101, 321, 64]            128
│    └─ConformerBlock: 2-10                        [321, 101, 64]            --
│    │    └─Scale: 3-49                            [321, 101, 64]            33,216
│    │    └─PreNorm: 3-50                          [321, 101, 64]            32,976
│    │    └─ConformerConvModule: 3-51              [321, 101, 64]            29,376
│    │    └─Scale: 3-52                            [321, 101, 64]            33,216
│    │    └─LayerNorm: 3-53                        [321, 101, 64]            128
├─TSCB: 1-5                                        [1, 64, 321, 101]         --
│    └─ConformerBlock: 2-11                        [101, 321, 64]            --
│    │    └─Scale: 3-54                            [101, 321, 64]            33,216
│    │    └─PreNorm: 3-55                          [101, 321, 64]            32,976
│    │    └─ConformerConvModule: 3-56              [101, 321, 64]            29,376
│    │    └─Scale: 3-57                            [101, 321, 64]            33,216
│    │    └─LayerNorm: 3-58                        [101, 321, 64]            128
│    └─ConformerBlock: 2-12                        [321, 101, 64]            --
│    │    └─Scale: 3-59                            [321, 101, 64]            33,216
│    │    └─PreNorm: 3-60                          [321, 101, 64]            32,976
│    │    └─ConformerConvModule: 3-61              [321, 101, 64]            29,376
│    │    └─Scale: 3-62                            [321, 101, 64]            33,216
│    │    └─LayerNorm: 3-63                        [321, 101, 64]            128
├─MaskDecoder: 1-6                                 [1, 1, 321, 201]          --
│    └─DilatedDenseNet: 2-13                       [1, 64, 321, 101]         --
│    │    └─ConstantPad2d: 3-64                    [1, 64, 322, 103]         --
│    │    └─Conv2d: 3-65                           [1, 64, 321, 101]         24,640
│    │    └─InstanceNorm2d: 3-66                   [1, 64, 321, 101]         128
│    │    └─PReLU: 3-67                            [1, 64, 321, 101]         64
│    │    └─ConstantPad2d: 3-68                    [1, 128, 323, 103]        --
│    │    └─Conv2d: 3-69                           [1, 64, 321, 101]         49,216
│    │    └─InstanceNorm2d: 3-70                   [1, 64, 321, 101]         128
│    │    └─PReLU: 3-71                            [1, 64, 321, 101]         64
│    │    └─ConstantPad2d: 3-72                    [1, 192, 325, 103]        --
│    │    └─Conv2d: 3-73                           [1, 64, 321, 101]         73,792
│    │    └─InstanceNorm2d: 3-74                   [1, 64, 321, 101]         128
│    │    └─PReLU: 3-75                            [1, 64, 321, 101]         64
│    │    └─ConstantPad2d: 3-76                    [1, 256, 329, 103]        --
│    │    └─Conv2d: 3-77                           [1, 64, 321, 101]         98,368
│    │    └─InstanceNorm2d: 3-78                   [1, 64, 321, 101]         128
│    │    └─PReLU: 3-79                            [1, 64, 321, 101]         64
│    └─SEBlock: 2-14                               [1, 64, 321, 101]         --
│    │    └─Sequential: 3-80                       [1, 64]                   580
│    └─SPConvTranspose2d: 2-15                     [1, 64, 321, 202]         --
│    │    └─ConstantPad2d: 3-81                    [1, 64, 321, 103]         --
│    │    └─Conv2d: 3-82                           [1, 128, 321, 101]        24,704
│    └─Conv2d: 2-16                                [1, 1, 321, 201]          129
│    └─InstanceNorm2d: 2-17                        [1, 1, 321, 201]          2
│    └─PReLU: 2-18                                 [1, 1, 321, 201]          1
│    └─Conv2d: 2-19                                [1, 1, 321, 201]          2
│    └─PReLU: 2-20                                 [1, 201, 321]             201
├─ComplexDecoder: 1-7                              [1, 2, 321, 201]          --
│    └─DilatedDenseNet: 2-21                       [1, 64, 321, 101]         --
│    │    └─ConstantPad2d: 3-83                    [1, 64, 322, 103]         --
│    │    └─Conv2d: 3-84                           [1, 64, 321, 101]         24,640
│    │    └─InstanceNorm2d: 3-85                   [1, 64, 321, 101]         128
│    │    └─PReLU: 3-86                            [1, 64, 321, 101]         64
│    │    └─ConstantPad2d: 3-87                    [1, 128, 323, 103]        --
│    │    └─Conv2d: 3-88                           [1, 64, 321, 101]         49,216
│    │    └─InstanceNorm2d: 3-89                   [1, 64, 321, 101]         128
│    │    └─PReLU: 3-90                            [1, 64, 321, 101]         64
│    │    └─ConstantPad2d: 3-91                    [1, 192, 325, 103]        --
│    │    └─Conv2d: 3-92                           [1, 64, 321, 101]         73,792
│    │    └─InstanceNorm2d: 3-93                   [1, 64, 321, 101]         128
│    │    └─PReLU: 3-94                            [1, 64, 321, 101]         64
│    │    └─ConstantPad2d: 3-95                    [1, 256, 329, 103]        --
│    │    └─Conv2d: 3-96                           [1, 64, 321, 101]         98,368
│    │    └─InstanceNorm2d: 3-97                   [1, 64, 321, 101]         128
│    │    └─PReLU: 3-98                            [1, 64, 321, 101]         64
│    └─SEBlock: 2-22                               [1, 64, 321, 101]         --
│    │    └─Sequential: 3-99                       [1, 64]                   580
│    └─SPConvTranspose2d: 2-23                     [1, 64, 321, 202]         --
│    │    └─ConstantPad2d: 3-100                   [1, 64, 321, 103]         --
│    │    └─Conv2d: 3-101                          [1, 128, 321, 101]        24,704
│    └─InstanceNorm2d: 2-24                        [1, 64, 321, 202]         128
│    └─PReLU: 2-25                                 [1, 64, 321, 202]         64
│    └─Conv2d: 2-26                                [1, 2, 321, 201]          258
====================================================================================================
Total params: 1,836,573
Trainable params: 1,836,573
Non-trainable params: 0
Total mult-adds (G): 41.56
====================================================================================================
Input size (MB): 0.52
Forward/backward pass size (MB): 4856.40
Params size (MB): 7.35
Estimated Total Size (MB): 4864.26
====================================================================================================
==========================================================================================
Layer (type:depth-idx)                   Output Shape              Param #
==========================================================================================
Discriminator                            [1, 1]                    --
├─Sequential: 1-1                        [1, 1]                    --
│    └─Conv2d: 2-1                       [1, 16, 100, 160]         512
│    └─InstanceNorm2d: 2-2               [1, 16, 100, 160]         32
│    └─PReLU: 2-3                        [1, 16, 100, 160]         16
│    └─Conv2d: 2-4                       [1, 32, 50, 80]           8,192
│    └─InstanceNorm2d: 2-5               [1, 32, 50, 80]           64
│    └─PReLU: 2-6                        [1, 32, 50, 80]           32
│    └─Conv2d: 2-7                       [1, 64, 25, 40]           32,768
│    └─InstanceNorm2d: 2-8               [1, 64, 25, 40]           128
│    └─PReLU: 2-9                        [1, 64, 25, 40]           64
│    └─Conv2d: 2-10                      [1, 128, 12, 20]          131,072
│    └─InstanceNorm2d: 2-11              [1, 128, 12, 20]          256
│    └─PReLU: 2-12                       [1, 128, 12, 20]          128
│    └─AdaptiveMaxPool2d: 2-13           [1, 128, 1, 1]            --
│    └─Flatten: 2-14                     [1, 128]                  --
│    └─Linear: 2-15                      [1, 64]                   8,256
│    └─Dropout: 2-16                     [1, 64]                   --
│    └─PReLU: 2-17                       [1, 64]                   64
│    └─Linear: 2-18                      [1, 1]                    65
│    └─LearnableSigmoid: 2-19            [1, 1]                    1
==========================================================================================
Total params: 181,650
Trainable params: 181,650
Non-trainable params: 0
Total mult-adds (M): 19.67
==========================================================================================
Input size (MB): 0.52
Forward/backward pass size (MB): 11.49
Params size (MB): 0.73
Estimated Total Size (MB): 12.73
==========================================================================================
…
